==========================================================================================
Layer (type:depth-idx)                   Output Shape              Param #
==========================================================================================
MLPMLPKAN                                [128, 10]                 --
├─MLPLinear: 1-1                         [128, 128]                --
│    └─Sequential: 2-1                   [128, 128]                --
│    │    └─Linear: 3-1                  [128, 128]                100,480
├─MLPLinear: 1-2                         [128, 32]                 --
│    └─Sequential: 2-2                   [128, 32]                 --
│    │    └─Linear: 3-2                  [128, 32]                 4,128
├─KANLinear: 1-3                         [128, 10]                 3,200
│    └─SiLU: 2-3                         [128, 32]                 --
==========================================================================================
Total params: 107,808
Trainable params: 107,808
Non-trainable params: 0
Total mult-adds (M): 13.39
==========================================================================================
Input size (MB): 0.40
Forward/backward pass size (MB): 0.16
Params size (MB): 0.42
Estimated Total Size (MB): 0.98
==========================================================================================
…
