==========================================================================================
Layer (type:depth-idx)                   Output Shape              Param #
==========================================================================================
KANKANReLU                               [128, 10]                 --
├─KANLinear: 1-1                         [128, 32]                 250,880
│    └─ReLU: 2-1                         [128, 784]                --
├─KANLinear: 1-2                         [128, 10]                 3,200
│    └─ReLU: 2-2                         [128, 32]                 --
==========================================================================================
Total params: 254,080
Trainable params: 254,080
Non-trainable params: 0
Total mult-adds (M): 0
==========================================================================================
Input size (MB): 0.40
Forward/backward pass size (MB): 0.00
Params size (MB): 0.00
Estimated Total Size (MB): 0.40
==========================================================================================
…
