==========================================================================================
Layer (type:depth-idx)                   Output Shape              Param #
==========================================================================================
ChebyKAN                                 [128, 10]                 --
├─ChebyKANLinear: 1-1                    [128, 128]                702,592
│    └─SiLU: 2-1                         [128, 784]                --
├─ChebyKANLinear: 1-2                    [128, 10]                 8,970
│    └─SiLU: 2-2                         [128, 128]                --
==========================================================================================
Total params: 711,562
Trainable params: 711,562
Non-trainable params: 0
Total mult-adds (M): 0
==========================================================================================
Input size (MB): 0.40
Forward/backward pass size (MB): 0.00
Params size (MB): 0.00
Estimated Total Size (MB): 0.40
==========================================================================================
…
