Train Epoch: 1 [0/60000 (0%)]	Loss: 0.219387
Train Epoch: 1 [20480/60000 (33%)]	Loss: 0.222990
Train Epoch: 1 [40960/60000 (67%)]	Loss: 0.220722
==========================================================================================
Layer (type:depth-idx)                   Output Shape              Param #
==========================================================================================
MLPKANKAN                                [128, 10]                 --
├─MLPLinear: 1-1                         [128, 128]                --
│    └─Sequential: 2-1                   [128, 128]                --
│    │    └─Linear: 3-1                  [128, 128]                100,480
├─KANLinear: 1-2                         [128, 32]                 40,960
│    └─SiLU: 2-2                         [128, 128]                --
├─KANLinear: 1-3                         [128, 10]                 3,200
│    └─SiLU: 2-3                         [128, 32]                 --
==========================================================================================
Total params: 144,640
Trainable params: 144,640
Non-trainable params: 0
Total mult-adds (M): 12.86
==========================================================================================
Input size (MB): 0.40
Forward/backward pass size (MB): 0.13
Params size (MB): 0.40
Estimated Total Size (MB): 0.93
==========================================================================================
…
