==========================================================================================
Layer (type:depth-idx)                   Output Shape              Param #
==========================================================================================
CNNKAN                                   [128, 10]                 --
├─ConvLinear: 1-1                        [128, 16, 14, 14]         --
│    └─Conv2d: 2-1                       [128, 16, 28, 28]         160
│    └─BatchNorm2d: 2-2                  [128, 16, 28, 28]         32
│    └─ReLU: 2-3                         [128, 16, 28, 28]         --
│    └─MaxPool2d: 2-4                    [128, 16, 14, 14]         --
├─ConvLinear: 1-2                        [128, 32, 7, 7]           --
│    └─Conv2d: 2-5                       [128, 32, 14, 14]         4,640
│    └─BatchNorm2d: 2-6                  [128, 32, 14, 14]         64
│    └─ReLU: 2-7                         [128, 32, 14, 14]         --
│    └─MaxPool2d: 2-8                    [128, 32, 7, 7]           --
├─KANLinear: 1-3                         [128, 128]                2,007,040
│    └─SiLU: 2-9                         [128, 1568]               --
├─KANLinear: 1-4                         [128, 10]                 12,800
│    └─SiLU: 2-10                        [128, 128]                --
==========================================================================================
Total params: 2,024,736
Trainable params: 2,024,736
Non-trainable params: 0
Total mult-adds (M): 132.48
==========================================================================================
Input size (MB): 0.40
Forward/backward pass size (MB): 38.54
Params size (MB): 0.02
Estimated Total Size (MB): 38.96
…
