==========================================================================================
Layer (type:depth-idx)                   Output Shape              Param #
==========================================================================================
PCAKAN                                   [128, 10]                 --
├─PCALayer: 1-1                          [128, 128]                --
├─KANLinear: 1-2                         [128, 32]                 40,960
│    └─SiLU: 2-1                         [128, 128]                --
├─KANLinear: 1-3                         [128, 10]                 3,200
│    └─SiLU: 2-2                         [128, 32]                 --
==========================================================================================
Total params: 44,160
Trainable params: 44,160
Non-trainable params: 0
Total mult-adds (M): 0
==========================================================================================
Input size (MB): 0.40
Forward/backward pass size (MB): 0.00
Params size (MB): 0.00
Estimated Total Size (MB): 0.40
==========================================================================================
…
