==========================================================================================
Layer (type:depth-idx)                   Output Shape              Param #
==========================================================================================
CNNMLP                                   [128, 10]                 --
├─ConvLinear: 1-1                        [128, 16, 14, 14]         --
│    └─Conv2d: 2-1                       [128, 16, 28, 28]         160
│    └─BatchNorm2d: 2-2                  [128, 16, 28, 28]         32
│    └─ReLU: 2-3                         [128, 16, 28, 28]         --
│    └─MaxPool2d: 2-4                    [128, 16, 14, 14]         --
├─ConvLinear: 1-2                        [128, 32, 7, 7]           --
│    └─Conv2d: 2-5                       [128, 32, 14, 14]         4,640
│    └─BatchNorm2d: 2-6                  [128, 32, 14, 14]         64
│    └─ReLU: 2-7                         [128, 32, 14, 14]         --
│    └─MaxPool2d: 2-8                    [128, 32, 7, 7]           --
├─MLPLinear: 1-3                         [128, 128]                --
│    └─Sequential: 2-9                   [128, 128]                --
│    │    └─Linear: 3-1                  [128, 128]                200,832
├─MLPLinear: 1-4                         [128, 10]                 --
│    └─Sequential: 2-10                  [128, 10]                 --
│    │    └─Linear: 3-2                  [128, 10]                 1,290
==========================================================================================
Total params: 207,018
Trainable params: 207,018
Non-trainable params: 0
Total mult-adds (M): 158.35
==========================================================================================
Input size (MB): 0.40
Forward/backward pass size (MB): 38.68
Params size (MB): 0.83
Estimated Total Size (MB): 39.91
==========================================================================================
…
