==========================================================================================
Layer (type:depth-idx)                   Output Shape              Param #
==========================================================================================
FourierKAN                               [128, 10]                 --
├─FourierKANLinear: 1-1                  [128, 128]                2,107,520
│    └─SiLU: 2-1                         [128, 784]                --
├─FourierKANLinear: 1-2                  [128, 10]                 26,890
│    └─SiLU: 2-2                         [128, 128]                --
==========================================================================================
Total params: 2,134,410
Trainable params: 2,134,410
Non-trainable params: 0
Total mult-adds (M): 0
==========================================================================================
Input size (MB): 0.40
Forward/backward pass size (MB): 0.00
Params size (MB): 0.00
Estimated Total Size (MB): 0.40
==========================================================================================
…
