==========================================================================================
Layer (type:depth-idx)                   Output Shape              Param #
==========================================================================================
TaylorKAN                                [128, 10]                 --
├─TaylorKANLinear: 1-1                   [128, 128]                401,536
│    └─SiLU: 2-1                         [128, 784]                --
├─TaylorKANLinear: 1-2                   [128, 10]                 5,130
│    └─SiLU: 2-2                         [128, 128]                --
==========================================================================================
Total params: 406,666
Trainable params: 406,666
Non-trainable params: 0
Total mult-adds (M): 0
==========================================================================================
Input size (MB): 0.40
Forward/backward pass size (MB): 0.00
Params size (MB): 0.00
Estimated Total Size (MB): 0.40
==========================================================================================
…
