==========================================================================================
Layer (type:depth-idx)                   Output Shape              Param #
==========================================================================================
MLPKAN                                   [128, 10]                 --
├─MLPLinear: 1-1                         [128, 128]                --
│    └─Sequential: 2-1                   [128, 128]                --
│    │    └─Linear: 3-1                  [128, 128]                100,480
├─KANLinear: 1-2                         [128, 10]                 12,800
│    └─SiLU: 2-2                         [128, 128]                --
==========================================================================================
Total params: 113,280
Trainable params: 113,280
Non-trainable params: 0
Total mult-adds (M): 12.86
==========================================================================================
Input size (MB): 0.40
Forward/backward pass size (MB): 0.13
Params size (MB): 0.40
Estimated Total Size (MB): 0.93
==========================================================================================
…
