==========================================================================================
Layer (type:depth-idx)                   Output Shape              Param #
==========================================================================================
MLP                                      [128, 10]                 --
├─MLPLinear: 1-1                         [128, 128]                --
│    └─Sequential: 2-1                   [128, 128]                --
│    │    └─Linear: 3-1                  [128, 128]                100,480
├─MLPLinear: 1-2                         [128, 32]                 --
│    └─Sequential: 2-2                   [128, 32]                 --
│    │    └─Linear: 3-2                  [128, 32]                 4,128
├─MLPLinear: 1-3                         [128, 10]                 --
│    └─Sequential: 2-3                   [128, 10]                 --
│    │    └─Linear: 3-3                  [128, 10]                 330
==========================================================================================
Total params: 104,938
Trainable params: 104,938
Non-trainable params: 0
Total mult-adds (M): 13.43
==========================================================================================
Input size (MB): 0.40
Forward/backward pass size (MB): 0.17
Params size (MB): 0.42
Estimated Total Size (MB): 1.00
==========================================================================================
…
