==========================================================================================
Layer (type:depth-idx)                   Output Shape              Param #
==========================================================================================
KANKAN                                   [128, 10]                 --
├─KANLinear: 1-1                         [128, 16]                 125,440
│    └─SiLU: 2-1                         [128, 784]                --
├─KANLinear: 1-2                         [128, 10]                 1,600
│    └─SiLU: 2-2                         [128, 16]                 --
==========================================================================================
Total params: 127,040
Trainable params: 127,040
Non-trainable params: 0
Total mult-adds (M): 0
==========================================================================================
Input size (MB): 0.40
Forward/backward pass size (MB): 0.00
Params size (MB): 0.00
Estimated Total Size (MB): 0.40
==========================================================================================
…
