==========================================================================================
Layer (type:depth-idx)                   Output Shape              Param #
==========================================================================================
MLPMLP                                   [128, 10]                 --
├─MLPLinear: 1-1                         [128, 128]                --
│    └─Sequential: 2-1                   [128, 128]                --
│    │    └─Linear: 3-1                  [128, 128]                100,480
├─MLPLinear: 1-2                         [128, 10]                 --
│    └─Sequential: 2-2                   [128, 10]                 --
│    │    └─Linear: 3-2                  [128, 10]                 1,290
==========================================================================================
Total params: 101,770
Trainable params: 101,770
Non-trainable params: 0
Total mult-adds (M): 13.03
==========================================================================================
Input size (MB): 0.40
Forward/backward pass size (MB): 0.14
Params size (MB): 0.41
Estimated Total Size (MB): 0.95
==========================================================================================
…
